src/pt_trainedmodel/ptmodel.pth (torch_old, 94287 bytes, 4 tensors)

layer1.weight f4 [256, 15]
0	0xbd976d27	-0.07393866
1	0xbd091067	-0.033462908
2	0xbdbdd0bc	-0.092683285
3	0x3d5a29a8	0.053262383
4	0x3ec9b7c9	0.3939803
5	0xbe20bd77	-0.15697275
6	0x3e3d6023	0.18493704
7	0xbdc5633b	-0.09638067
8	0x3e3c0dd9	0.18364657
9	0x3d61a188	0.05508569
10	0xbec15efd	-0.37767783
11	0x3e382747	0.17983733
12	0x3cd15aea	0.025556047
13	0x3e0cdfc8	0.13757241
14	0x3e742dd5	0.23845609
15	0x3da74caf	0.08168923
16	0xbd8a5f14	-0.06756416
17	0xbf0759dc	-0.5287149
18	0x3c83b149	0.016075747
19	0xbd187e78	-0.037229985
20	0x3ec5f477	0.38663074
21	0x3e0400da	0.1289095
22	0xbe355d30	-0.1771133
23	0xbeeda953	-0.46418247
24	0xbbc59763	-0.0060300096
25	0x3e5d3870	0.2160356
26	0xbe76e61c	-0.24111217
27	0x3e77cea7	0.24199925
28	0xbf024371	-0.5088416
29	0x3cca8acf	0.024724392
30	0x3aebda1f	0.0017994082
31	0xbe2bce31	-0.16777875
32	0xbdbef74d	-0.09324513
33	0xbda9db48	-0.08293778
34	0xbe8f1c55	-0.27951303
35	0xbe46141b	-0.19343607
36	0xbe1ecbbd	-0.15507407
37	0x3e51987f	0.20468329
38	0xbd8cea62	-0.068806425
39	0xbd81a75e	-0.06330751
40	0x3d7f2072	0.0622868
41	0x3d997f58	0.07494992
42	0x3d9c8c95	0.076440014
43	0xbf6b0080	-0.9179764
44	0xbea5acd2	-0.32358414
45	0x3e340cb6	0.17582974
46	0x3d36fb8b	0.044673484
47	0x3e1268c6	0.1429778
48	0xbded0fff	-0.11575317
49	0x3ce2a0d3	0.027664578
50	0xbe465b98	-0.19370878
51	0x3dfde12f	0.12396466
52	0x3cb95303	0.02262259
53	0x3d79d9e7	0.060998823
54	0x3e1ef932	0.15524748
55	0xbdc7b4fc	-0.09751317
56	0xbdde269b	-0.10847207
57	0xbe4786cf	-0.19485019
58	0x3e152e65	0.1456848
59	0x3e7e2b9f	0.24821328
60	0xbc9c940c	-0.019113563
61	0x3e4df559	0.20113124
62	0x3e54198b	0.20712869
63	0xbda1ff3a	-0.07910009
64	0x3e1103d2	0.14161614
65	0x3dc1b241	0.09457827
66	0xbe3cfd98	-0.18456113
67	0x3e4232f3	0.18964748
68	0x3bbc9e81	0.0057562
69	0x3d06de8b	0.032927077
70	0xbeafb97f	-0.3432121
71	0x3e34b5d6	0.1764749
72	0x3dd2193c	0.10258719
73	0xbdaa8894	-0.083268315
74	0x3cc1b4c9	0.023645775
75	0x3e8d9c40	0.27658272
76	0xbda3c07d	-0.079956986
77	0xbe169d64	-0.14708477
78	0x3dc734db	0.09726878
79	0xbe8d234b	-0.2756599
80	0xbe02deed	-0.12780352
81	0x3cebe254	0.028794445
82	0xbd339e9f	-0.043852445
83	0x3e322a27	0.17398892
84	0x3d8c167e	0.068402275
85	0xbd041fd8	-0.03225693
86	0x3f0588bc	0.52161765
87	0x3e9231c0	0.2855358
88	0xbe8db279	-0.27675226
89	0xbf12ad94	-0.5729611
90	0x3e33ef8b	0.17571847
91	0xbe7df2ee	-0.24799702
92	0xbda48696	-0.08033483
93	0xbc1c8724	-0.009553704
94	0x3e5488a8	0.20755255
95	0x3e04fa8b	0.129862
96	0x3eab768c	0.33488882
97	0xbc4e23ba	-0.01258176
98	0x3d853d08	0.065057814
99	0xbf05f843	-0.5233194
100	0xbf1d5cb8	-0.614696
101	0xbeafd7b5	-0.3434426
102	0x3e475086	0.19464311
103	0x3d72efcc	0.05931072
104	0xbe5b257f	-0.21401022
105	0xbe399bd1	-0.18125845
106	0xbd00baeb	-0.03142826
107	0xbddf40df	-0.10901045
108	0xbe3c87ab	-0.18411128
109	0xbde52e77	-0.11190503
110	0xbe09048c	-0.13380641
111	0xbda0e412	-0.07856001
112	0xbd8b0771	-0.06788529
113	0x3ec179c9	0.37788227
114	0xbf29b191	-0.6628657
115	0x3d3c8502	0.046025284
116	0x3ebda72d	0.37041607
117	0x3d9109e3	0.07081964
118	0xbf17aa36	-0.59244096
119	0xbebf4515	-0.37357393
120	0x3d9fe311	0.07806981
121	0x3de4eb70	0.11177719
122	0xbd4994a8	-0.049214035
123	0xbe0827b2	-0.13296393
124	0x3e96374c	0.29339063
125	0xbd1f1951	-0.038842503
126	0x3d9f5dea	0.077815846
127	0xbe5d61f6	-0.216194
128	0x3eadd972	0.3395496
129	0xbe8ff828	-0.28119016
130	0xbd344e19	-0.044019792
131	0xbf250605	-0.6446231
132	0x3e86d5ca	0.26334983
133	0xbe42cd7e	-0.19023702
134	0xbf07a742	-0.5298959
135	0xbe28f3b4	-0.16499215
136	0x3e065693	0.13118963
137	0xbd2e2f22	-0.042525418
138	0x3cfdee41	0.030997397
139	0x3e518238	0.20459831
140	0x3cd2a33e	0.025712606
141	0x3de97975	0.11400119
142	0x3dea286c	0.11433491
143	0xbd5c8b38	-0.053843707
144	0xbe24e226	-0.16101894
145	0x3e4e1c4b	0.2012798
146	0xbdf8b7c9	-0.12144429
147	0xbe353b7b	-0.17698471
148	0x3e09e056	0.13464484
149	0xbc3bcce6	-0.011462426
150	0xbe9bc71c	-0.30425346
151	0x3ddd1092	0.10794176
152	0xbdd70db1	-0.10500658
153	0xbcc97083	-0.024589783
154	0xbd8eced0	-0.0697304
155	0x3e806c16	0.25082463
156	0x3e6388b7	0.22220121
157	0xbe804bd6	-0.25057858
158	0x3e5c70e5	0.21527441
159	0x3e5cbdd2	0.21556786
160	0xbdd8ed42	-0.10592128
161	0xbec7351f	-0.38907716
162	0xbf21f818	-0.63269186
163	0xbe0e4b1d	-0.13895841
164	0xbf0b4b1d	-0.5441149
165	0xbdcc42a7	-0.099736504
166	0xbeb1d18c	-0.34730184
167	0x3e28310a	0.16424957
168	0xbdabc63c	-0.083874196
169	0x3e28096d	0.16409846
170	0xbe3037ae	-0.1720874
171	0xbe9479df	-0.2899923
172	0xbf26e915	-0.65199405
173	0x3ea8ff6f	0.3300738
174	0xbe422cf8	-0.18962467
175	0xbe7aa15a	-0.24475613
176	0x3df8adfb	0.12142559
177	0xbf22c1cd	-0.63576967
178	0x3ebe792a	0.37201816
179	0xbf103438	-0.5632968
180	0x3e45b514	0.19307357
181	0xbd8fc619	-0.07020206
182	0xbe6122e5	-0.21985967
183	0x3e35bf47	0.17748748
184	0x3d408e6a	0.047010817
185	0x3dbd411b	0.092409335
186	0x3c92b331	0.01790771
187	0x3b98361e	0.004645123
188	0x3e59d926	0.21274242
189	0xbf1dd8fc	-0.61659217
190	0xbe203dcc	-0.15648574
191	0x3ecdce05	0.40196243
192	0xbdfd1be8	-0.12358838
193	0x3dc8e66e	0.09809576
194	0x3e0eef5b	0.13958494
195	0x3ed69fd9	0.4191883
196	0xbd78dd2b	-0.060757797
197	0xbe41191a	-0.18857232
198	0xbee04e72	-0.4380985
199	0x3e02cf3f	0.1277437
200	0xbea998ef	-0.33124492
201	0x3e581344	0.21101099
202	0xbdb1b5a3	-0.086772226
203	0x3eba672f	0.36406848
204	0x3ea8e20b	0.32984957
205	0x3d9c3a66	0.07628326
206	0xbcc10670	-0.02356264
207	0xbf3348fd	-0.70033246
208	0xbed09c71	-0.40744355
209	0xbe51347c	-0.20430177
210	0xbd128d30	-0.03577918
211	0xbe8711e6	-0.26380843
212	0xba07f5d5	-0.0005186473
213	0x3e36d83e	0.17855927
214	0x3e1acab1	0.15116383
215	0x3d685cc7	0.056729104
216	0xbea9b86c	-0.33148515
217	0x3e4fbc9c	0.20286793
218	0xbde853c8	-0.11344105
219	0x3d91e4df	0.07123732
220	0x3e3b6759	0.18301143
221	0x3d5b38c7	0.053520944
222	0xbbc16846	-0.005902323
223	0x3da43f0a	0.08019836
224	0xbeba5aef	-0.36397502
225	0xbe42cb9f	-0.19022988
226	0xbc911394	-0.01770953
227	0x3d8f8911	0.07008565
228	0x3baab4f1	0.005209558
229	0xbec5af34	-0.38610232
230	0x3e7adbf9	0.24497975
231	0xbe42a9ec	-0.19010133
232	0x3e393da3	0.18089919
233	0x3ea86139	0.32886675
234	0xbeee05dc	-0.46488845
235	0xbecf773a	-0.4052065
236	0xbc10a1bb	-0.008827622
237	0x3ba55748	0.005045805
238	0xbe35b881	-0.17746164
239	0x3e7355b8	0.23763168
240	0xbd7233e8	-0.059131533
241	0x3d750921	0.05982316
242	0x3ebaff25	0.36522785
243	0xbedae987	-0.42756292
244	0x3d607ec3	0.05480839
245	0xbed6069d	-0.4180192
246	0xbd91ae62	-0.07113339
247	0xbe9ed556	-0.31022137
248	0xbe978782	-0.29595572
249	0xbe3bbee3	-0.18334536
250	0x3e82153a	0.2540682
251	0xbdb4f8cf	-0.08836519
252	0xbea06fe2	-0.3133536
253	0xbd68ad28	-0.05680576
254	0xbeea3ef4	-0.45751154
255	0xbefd98c7	-0.49530622

layer1.bias f4 [256]
0	0xbfb71ebe	-1.4306257
1	0x3fb0c024	1.3808637
2	0xbeceda15	-0.40400758
3	0xbf4d2193	-0.80129355
4	0xbf491679	-0.78549916
5	0xbf43a125	-0.7641776
6	0xbd25d288	-0.04048398
7	0xbf11023c	-0.56644034
8	0xbf9bde8a	-1.2177289
9	0xbfae4f9d	-1.3618046
10	0x3eaa280e	0.33233684
11	0xbeb7805f	-0.35840127
12	0xbf301549	-0.6878248
13	0x3f052cc2	0.5202142
14	0xbf9d9643	-1.2311481
15	0x3e740d2e	0.23833153
16	0x3fca96d1	1.5827276
17	0x3f6d58fe	0.92713916
18	0x3f7f72f0	0.99784756
19	0xbeaaedc9	-0.3338454
20	0x3e1955cd	0.14974137
21	0xbc07833d	-0.008271036
22	0x3dd97544	0.1061807
23	0xbeb2a32c	-0.34890115
24	0x3ff456d4	1.9088998
25	0x3e971375	0.29507032
26	0xbf85a90b	-1.0442213
27	0x3d234e46	0.03986957
28	0x3fd20046	1.6406333
29	0xbfcd9686	-1.6061561
30	0xbe50c4ed	-0.20387621
31	0x3ebda23c	0.37037838
32	0x3ef181d4	0.47169363
33	0x3f11fae5	0.5702346
34	0xbe86ad13	-0.2630392
35	0x3fb818ef	1.4382609
36	0xbed37f1a	-0.41307908
37	0x3e0adda7	0.13561116
38	0x4054918c	3.3213835
39	0xbedc362e	-0.43010086
40	0x3f351fca	0.7075163
41	0x3df820cb	0.1211563
42	0x4030da7e	2.7633357
43	0xbfd3f1aa	-1.6558125
44	0xbecae91b	-0.3963097
45	0x39c81a3a	0.00038166513
46	0x3f9bcf8f	1.2172717
47	0x3e31ef6c	0.17376488
48	0xbf370b0e	-0.71501243
49	0xbd9c87e3	-0.07643106
50	0xbf874f78	-1.0571127
51	0xbf462c1f	-0.77411073
52	0xbed1a88b	-0.409489
53	0xbe603e92	-0.21898869
54	0x400d6c90	2.2097511
55	0xbe3ca081	-0.18420602
56	0x3d39b4cd	0.04533844
57	0x402b7b54	2.6794024
58	0x3f16d2e4	0.58915544
59	0xbf5f9608	-0.87338305
60	0x3c2dc080	0.010604978
61	0xbe170165	-0.14746626
62	0xbe5a5924	-0.21323067
63	0xbebb4cc3	-0.36582002
64	0x3fed298f	1.8528308
65	0xbf6e7eb4	-0.93162084
66	0xbe2887f6	-0.16458115
67	0xbf2a0294	-0.66410184
68	0xbe381915	-0.17978318
69	0xbf31cb59	-0.6945091
70	0xbec8879a	-0.39165956
71	0x3d2a6e7c	0.041609272
72	0x3fc89c5d	1.5672718
73	0x402417dd	2.5639565
74	0xbde25937	-0.11052173
75	0xbb94923b	-0.0045340336
76	0xbdb67704	-0.08909419
77	0x3f4f312b	0.809344
78	0x3e9a6f8b	0.30163226
79	0x3fdbf9ae	1.7185571
80	0xbf8fc999	-1.1233398
81	0x3d9fccbd	0.078027226
82	0x4041a5c0	3.0257416
83	0xbd0c5c9b	-0.034268003
84	0xbe9b5c42	-0.30343825
85	0xbf4568f5	-0.77113277
86	0xbe9db27d	-0.30800238
87	0x3f8e0305	1.1094671
88	0x3d416419	0.0472146
89	0xbee6041a	-0.44925004
90	0xbf1856fd	-0.59507734
91	0xbf6d0594	-0.92586637
92	0xbed5f851	-0.41791013
93	0xbeb45cd8	-0.35227084
94	0xbfc404bd	-1.5313946
95	0x3ec2a014	0.38012755
96	0xbfc2bd6c	-1.5214057
97	0xbf0d60fd	-0.5522612
98	0x3fdf0f53	1.7426552
99	0xbee4beaf	-0.4467673
100	0x3fa9f9ec	1.3279395
101	0xbf94d3fc	-1.1627192
102	0x403322c1	2.7989962
103	0xbe39c5b5	-0.18141825
104	0xbefa319e	-0.4886598
105	0x40012063	2.0176017
106	0x3f1e252b	0.61775464
107	0xbf8827b3	-1.0637115
108	0xbf606f3a	-0.8766972
109	0xbf8e491a	-1.1116059
110	0xbe521b96	-0.20518336
111	0xbe97a292	-0.2961622
112	0xbf62849c	-0.88483596
113	0x3f7c8381	0.9863816
114	0xbf96beb6	-1.177695
115	0x3eed2a04	0.46321118
116	0x3fafc816	1.3732936
117	0x3feaaa6f	1.8333262
118	0xbf1e2005	-0.6176761
119	0xbf217452	-0.63068116
120	0x3fc2173f	1.5163344
121	0xbf8e687f	-1.112564
122	0xbee4f9d4	-0.44721854
123	0x40118554	2.2737627
124	0xbe9377eb	-0.28802428
125	0xbf5f7781	-0.87291723
126	0x3fbea4af	1.4894007
127	0x3f2d1a6d	0.6761845
128	0xbfc07ddb	-1.5038408
129	0xbfc66db2	-1.5502226
130	0xbfafcf4c	-1.3735137
131	0x3e6302d8	0.22169054
132	0x3f3d2fc2	0.73901
133	0x3f50098a	0.81264555
134	0xbf818b06	-1.0120552
135	0xbf638ce1	-0.8888684
136	0xbf7a15d3	-0.9768955
137	0x3ff50983	1.9143528
138	0x3fde54ac	1.736959
139	0xbf838dba	-1.0277627
140	0xbf905768	-1.1276674
141	0x3f671ccf	0.90278333
142	0xbf35529c	-0.70829177
143	0xbf95c86a	-1.1701787
144	0x3edf63c7	0.43630812
145	0xbeed3199	-0.46326903
146	0x40737e79	3.8045943
147	0x3db66e57	0.089077644
148	0x3f846d09	1.0345775
149	0x3f2999ab	0.66250104
150	0xbd6dfdf8	-0.05810353
151	0x3f228280	0.6348038
152	0xbf629bf8	-0.8851924
153	0xbf36e4ce	-0.7144288
154	0xbde6a113	-0.11261191
155	0xbfecb74d	-1.8493439
156	0x3fb7d6e3	1.4362453
157	0xbf93db33	-1.1551269
158	0xbfdea0e8	-1.7392855
159	0xbe8e8f4e	-0.27843708
160	0x3f13d084	0.57740045
161	0xbd96b0fb	-0.07357975
162	0xbebc5076	-0.36780137
163	0x3f7889e2	0.9708539
164	0x3eb2fd7d	0.3495902
165	0xbf9a31a8	-1.2046404
166	0x4008ad18	2.1355648
167	0xbe04280d	-0.12905903
168	0x4066091a	3.5943055
169	0x4075f9a7	3.8433626
170	0xbe7246c9	-0.23659815
171	0xbe91ae18	-0.28453135
172	0xbf28c139	-0.65919834
173	0x3efdf0d0	0.49597788
174	0x4033de31	2.8104365
175	0xbf3db1b1	-0.7409926
176	0x3e4804f8	0.19533145
177	0xbf3b4ee2	-0.7316724
178	0xbe2cfa95	-0.16892464
179	0xbea061ef	-0.31324717
180	0xbeffe15b	-0.4997662
181	0x3e42ec43	0.19035439
182	0x3fdb6c87	1.7142495
183	0xbf58efb5	-0.84740764
184	0xbdf6322e	-0.1202129
185	0xbfd878db	-1.6911882
186	0xbf04db70	-0.51897335
187	0x3f38c362	0.7217313
188	0xbd819549	-0.06327302
189	0xbf170a7d	-0.5900038
190	0x3e92c0cb	0.28662714
191	0x3f5867fa	0.84533656
192	0x3fdf8cae	1.7464807
193	0x3fc33b22	1.5252421
194	0xbf1a4d16	-0.60273874
195	0xbf31dcdf	-0.6947765
196	0xbef38aa2	-0.47566706
197	0x3fd07b40	1.6287613
198	0xc01c7878	-2.4448528
199	0xbfa46a30	-1.2844906
200	0x3efcbae9	0.4936135
201	0x3ff2bed6	1.8964489
202	0x3f2eab24	0.6822989
203	0xbee83dac	-0.45359552
204	0x3fa476be	1.2848737
205	0x3faa6ca7	1.3314408
206	0xbf023da0	-0.5087528
207	0x3e512a53	0.20426302
208	0x3fa902b2	1.3203948
209	0xbd920eb2	-0.07131709
210	0xbf3971c1	-0.724392
211	0xc00fc6cd	-2.2465088
212	0xbf582737	-0.8443484
213	0x3fd9ec3e	1.702522
214	0xbfc44c32	-1.5335753
215	0x3dd9c214	0.106327206
216	0xbfc046fc	-1.5021663
217	0x409a2206	4.8166533
218	0x40705d7d	3.755706
219	0x4019f3a7	2.4054964
220	0x3c55abe5	0.013041471
221	0x3ed5340a	0.41641265
222	0xbf7afac0	-0.98038864
223	0xbf8aea28	-1.0852709
224	0xbf8ec503	-1.1153873
225	0xbffac319	-1.9590789
226	0xbf8e8902	-1.1135561
227	0xbfb5e5ed	-1.4210793
228	0x3f59de53	0.85104865
229	0x403d2aac	2.9557295
230	0x405fab70	3.4948387
231	0x407b97a3	3.9311302
232	0x4002d158	2.0440273
233	0x400c2619	2.1898253
234	0x3ec24ffe	0.37951654
235	0x3f99ffaa	1.2031147
236	0x3fa499e8	1.2859468
237	0x3f82d716	1.0221889
238	0x3fb6e182	1.428757
239	0xbf69abac	-0.91277575
240	0xbf831f46	-1.0243919
241	0x3e820fda	0.2540272
242	0xbf434670	-0.76279354
243	0x3fd7a42e	1.6846979
244	0xbf00c336	-0.5029787
245	0x3f802976	1.0012653
246	0x3f735a0d	0.9505928
247	0xbe8f4b3f	-0.27987096
248	0x3fa0efc4	1.2573171
249	0x3fc2c581	1.5216523
250	0xbf99966a	-1.1999028
251	0x3f2d9023	0.6779806
252	0xbf9e3642	-1.2360308
253	0xbfb322a2	-1.3994944
254	0xbf0f3b92	-0.5595027
255	0x3f7447e5	0.954222

layer2.weight f4 [75, 256]
0	0xbcf21c9a	-0.029554654
1	0x3d14d4ea	0.036335863
2	0x3cceaa14	0.025227584
3	0x3e1d0280	0.15332985
4	0x3d1b7312	0.037951536
5	0x3e36c257	0.17847572
6	0xbdfce476	-0.12348263
7	0x3d3f88ce	0.046761326
8	0xbd5cb784	-0.05388595
9	0xbe1b92e8	-0.15192759
10	0xbe48b85c	-0.19601578
11	0xbe878514	-0.26468718
12	0x3ea9385b	0.33050808
13	0xbe72b409	-0.2370149
14	0x3ed0ab06	0.4075548
15	0xbd338d82	-0.043836124
16	0xbebf4c48	-0.37362885
17	0xbeb797a5	-0.35857883
18	0xbe235e71	-0.15953995
19	0xbe44af70	-0.19207549
20	0x3bcf6664	0.0063293446
21	0xbd2ce303	-0.042208683
22	0xbe377d5d	-0.17918916
23	0xbecd4afd	-0.40096274
24	0x3d5ec750	0.054389298
25	0xbdcd9005	-0.10037235
26	0xbe98b7fc	-0.2982787
27	0xbe4ebc87	-0.20189105
28	0x3da4996f	0.08037078
29	0x3d8bb1d1	0.06821025
30	0xbe2f2634	-0.17104417
31	0x3e8dff7b	0.2773398
32	0x3d5fee5d	0.05467068
33	0x3dff07b6	0.124526426
34	0x3e9e44bf	0.30911824
35	0xbe8bebff	-0.27328488
36	0x3cda28ee	0.026630845
37	0xbc231251	-0.009953097
38	0xbe2bbd17	-0.16771351
39	0x3e806321	0.2507563
40	0x3e2b4b82	0.16728023
41	0xbd8c1046	-0.068390414
42	0xbe8227f9	-0.25421122
43	0x3c651932	0.013983058
44	0x3e9d402a	0.30713016
45	0x3d0b8e52	0.034071274
46	0xbed2b692	-0.41154915
47	0x3e4f763f	0.20259951
48	0xbd194df9	-0.037427876
49	0xbdf592c3	-0.11990883
50	0x3dc55822	0.096359506
51	0x3e08210f	0.13293861
52	0xbc36a3e5	-0.011147474
53	0x3e0cdd55	0.13756306
54	0xbeda5a46	-0.42646998
55	0x3e4e1422	0.20124868
56	0xbe236cfe	-0.15959546
57	0x3cb2de2b	0.021834454
58	0xbda2578e	-0.07926856
59	0x3da1ed32	0.079065695
60	0xbd8733d9	-0.06601686
61	0x3e0f73c9	0.14009012
62	0xbe95e34e	-0.29274982
63	0x3d4a4cc2	0.04938961
64	0xbe85f2d6	-0.26161832
65	0xbe23e972	-0.16007021
66	0x3e0e8ff2	0.13922098
67	0x3d2608b0	0.04053563
68	0x3d02f5cc	0.03197269
69	0x3c090d4a	0.008364985
70	0xbe28a1f4	-0.1646803
71	0x3d78a2e1	0.06070221
72	0x3e79ae16	0.24382815
73	0xbe55cf93	-0.20879965
74	0xbe4f4628	-0.20241606
75	0x3e00888d	0.1255209
76	0x3e393ad3	0.18088846
77	0xbda4b060	-0.08041453
78	0xbe893caa	-0.26804096
79	0xbd345171	-0.04402298
80	0x3e8157ae	0.25262207
81	0xbe0bca1f	-0.13651322
82	0xbec7a794	-0.3899504
83	0xbea163c3	-0.31521425
84	0xbcf05172	-0.029335711
85	0x3e6adeb0	0.22936511
86	0x3dda8567	0.10669976
87	0xbc29df5e	-0.010368196
88	0xbcb835f2	-0.02248666
89	0xbd596903	-0.053078663
90	0x3df1d94f	0.118090264
91	0xbd112eac	-0.0354449
92	0x3d239c48	0.039943963
93	0x3e80bb54	0.2514292
94	0x3dde0a21	0.10841776
95	0xbe49a087	-0.19690143
96	0x3e52b347	0.20576201
97	0x3c364d90	0.011126891
98	0xbdf3aa38	-0.11897701
99	0xbd9c6418	-0.07636279
100	0xbd63332c	-0.055468723
101	0x3e19500a	0.14971939
102	0xbf054d60	-0.5207119
103	0xbe39ca63	-0.1814361
104	0xbcd03263	-0.025414651
105	0xbe93c799	-0.28863218
106	0xbe58ddc5	-0.21178348
107	0xbd8ee1e3	-0.06976678
108	0x3e6382dc	0.22217888
109	0x3e89160d	0.26774636
110	0xbd6dc75c	-0.058051452
111	0x3ddc6c9b	0.10762902
112	0x3d55173c	0.05202411
113	0xbe288ca6	-0.16459903
114	0x3e5778ca	0.21042171
115	0x3dd4fac4	0.10399392
116	0xbec3ce9f	-0.38243577
117	0xbf097860	-0.536993
118	0x3c2e1c88	0.01062692
119	0x3c7f9bd3	0.015601116
120	0xbec111e9	-0.37708977
121	0xbde3734c	-0.111059755
122	0xbd353bc2	-0.044246443
123	0xbf111e70	-0.5668707
124	0xbe77c2f4	-0.24195462
125	0x3e0c04f0	0.13673759
126	0xbe3669d5	-0.17813809
127	0xbe64b110	-0.22333169
128	0x3ea11cb0	0.314672
129	0x3e3d13b0	0.18464541
130	0xbd70b54b	-0.058766644
131	0x3e2cac38	0.16862571
132	0x3e93880c	0.28814733
133	0xbe239ed6	-0.1597856
134	0xbdbaef21	-0.091276415
135	0x3d14efa6	0.03636136
136	0xbe931b84	-0.2873193
137	0xbe024e79	-0.12725247
138	0xbea4a9a7	-0.32160684
139	0x3d61665e	0.055029266
140	0xbcae5676	-0.021281462
141	0x3b83fa28	0.0040276237
142	0x3e355850	0.1770947
143	0xbdac045a	-0.083992675
144	0x3dd51bb4	0.104056746
145	0x3cb3bca4	0.021940537
146	0xbefa9c3a	-0.48947316
147	0x3eddee9a	0.433461
148	0x3daa91cd	0.083285905
149	0xbe3dc12e	-0.18530723
150	0x3db7f6d9	0.08982629
151	0x3e1011b7	0.14069258
152	0x3e5c3db3	0.21507911
153	0x3ebaa19c	0.36451423
154	0x3d3d7829	0.04625717
155	0x3dde510d	0.10855303
156	0xbe50746a	-0.20356908
157	0xbed0ba69	-0.4076722
158	0x3d97f381	0.074194916
159	0x3e6fa720	0.23403597
160	0xbe69df9f	-0.22839211
161	0x3dba77da	0.09104891
162	0x3ddd1ab9	0.107961126
163	0xbf0aeb0f	-0.5426492
164	0xbe11cd22	-0.14238408
165	0xbcba2c25	-0.022726128
166	0xbeade11d	-0.3396081
167	0xbd8a1b39	-0.067434736
168	0xbed28ac1	-0.41121486
169	0xbef2b833	-0.47406158
170	0x3ea53995	0.32270494
171	0xbe0f28f4	-0.13980466
172	0x3e480931	0.19534756
173	0xbd8798dd	-0.06620953
174	0x3dede257	0.116154365
175	0x3e374dd8	0.17900789
176	0xbe89da1e	-0.26924223
177	0xbd905733	-0.07047882
178	0x3dca5a50	0.09880507
179	0xbdcb19ee	-0.09917055
180	0xbeb7e8fd	-0.35919943
181	0xbc34b6a3	-0.011029872
182	0xbe231256	-0.15924963
183	0x3da61470	0.08109367
184	0x3d3e2e2d	0.046430755
185	0x3a1dd1f4	0.000602036
186	0x3e017c6e	0.12645122
187	0xbe7cf994	-0.24704581
188	0x3e2d1459	0.16902293
189	0xbd904ab3	-0.07045498
190	0xbe5ac788	-0.21365178
191	0x3e88db90	0.26730013
192	0xbe40ccbc	-0.188281
193	0xbe1fff2e	-0.15624687
194	0x3d1552aa	0.036455788
195	0x3e90295b	0.28156552
196	0xbed50d10	-0.41611528
197	0xbed2e5b3	-0.41190872
198	0x3dd1c5fa	0.10242839
199	0xbe2d95c4	-0.16951662
200	0xbe1eeafe	-0.1551933
201	0xbe4b503a	-0.19854823
202	0x3d8c4806	0.06849675
203	0xbe48628e	-0.19568846
204	0xbde2570d	-0.1105176
205	0xbdf13cd4	-0.1177918
206	0xbe234e4c	-0.15947837
207	0x3bc89679	0.0061214534
208	0x3d1021d1	0.0351885
209	0x3ecd6c65	0.4012176
210	0xbdb4435b	-0.088019095
211	0xbba77210	-0.005110033
212	0xbdb0ef56	-0.086394
213	0x3dd10675	0.1020631
214	0xbd540671	-0.051763956
215	0x3d2ec6fe	0.042670242
216	0x3e13e3d5	0.1444238
217	0xbf0154da	-0.505201
218	0xbf15ced0	-0.58518696
219	0x3c35c788	0.011094935
220	0xbd1c482c	-0.038154766
221	0x3ca43454	0.020044483
222	0x3e4ce0ab	0.20007579
223	0xbdc3b6f6	-0.095563814
224	0x3c8c67fb	0.017139426
225	0x3d4696e3	0.04848374
226	0x3dfb11eb	0.12259277
227	0x3d17456a	0.036931433
228	0x3ddbad0e	0.10726367
229	0xbebbbcf8	-0.3666761
230	0xbf317eb7	-0.69333977
231	0xbee51af5	-0.4474713
232	0xbe56db89	-0.20982184
233	0xbeb51320	-0.35366154
234	0xbe4b123e	-0.19831178
235	0xbdda1d09	-0.10650069
236	0xbe4b26e5	-0.19839056
237	0x3d30a700	0.043128014
238	0xbed6d349	-0.41958073
239	0x3deee656	0.11665027
240	0x3df71f91	0.12066568
241	0xbd2e7a69	-0.04259721
242	0x3e0bfef1	0.13671471
243	0xbe7c177d	-0.24618335
244	0xbe060e25	-0.13091333
245	0x3d796165	0.0608839
246	0x3dc77d18	0.097406566
247	0x3decc584	0.115611106
248	0x3ce735bd	0.028223867
249	0xbead72d7	-0.33876678
250	0xbd426777	-0.047461953
251	0xbe072fa7	-0.13201772
252	0xbe4a2afd	-0.19742961
253	0x3e1afee4	0.15136296
254	0x3e0f4b42	0.13993552
255	0xbd8bc2fc	-0.068243

layer2.bias f4 [75]
0	0xbf626711	-0.88438517
1	0xbf2a9f32	-0.6664916
2	0xbf0942a6	-0.5361732
3	0xbe8d37f4	-0.2758175
4	0xbc879894	-0.016552247
5	0xbf4a6d6a	-0.790732
6	0xbf08e10d	-0.534684
7	0xbeabbfc3	-0.3354474
8	0xbdf417ee	-0.11918627
9	0x3cbd20d9	0.023086952
10	0xbedd8151	-0.43262723
11	0xbe2ac729	-0.16677536
12	0x3d5f9516	0.05458554
13	0x3e980244	0.2968923
14	0x3eca60fd	0.3952712
15	0xbf962a02	-1.173157
16	0xbeebc182	-0.46046072
17	0xbe43f74c	-0.19137305
18	0x3d95ea55	0.07320086
19	0x3e425e5b	0.18981306
20	0xbf9fddc9	-1.2489558
21	0xbf6bcec3	-0.9211237
22	0xbf3f5442	-0.7473794
23	0xbee57e4f	-0.44822928
24	0xbe2f5f64	-0.17126232
25	0xbf2ca47b	-0.6743848
26	0xbece2c03	-0.40267953
27	0xbe929794	-0.2863127
28	0xbe2bd92c	-0.16782063
29	0x3d3be34a	0.045871057
30	0xbfbea12c	-1.4892936
31	0xbf780560	-0.968832
32	0xbf30fd8f	-0.691369
33	0xbedda2fb	-0.43288407
34	0xbe803af3	-0.25044975
35	0xbf6c7f02	-0.923813
36	0xbf1fab0f	-0.6237039
37	0xbedcbc57	-0.43112442
38	0xbea2523a	-0.3170336
39	0xbd615627	-0.055013802
40	0xbf8f83e8	-1.121213
41	0xbf4cb8f6	-0.7996973
42	0xbf1e2a26	-0.61783063
43	0xbeb1a70b	-0.34697756
44	0xbe29423a	-0.1652917
45	0xbf8d94d8	-1.1061049
46	0xbf6866d2	-0.9078189
47	0xbf1ad949	-0.604878
48	0xbf00c708	-0.503037
49	0xbe4d891b	-0.20071833
50	0xbf8ba050	-1.0908298
51	0xbf674d8d	-0.9035271
52	0xbf312a09	-0.69204766
53	0xbed9c606	-0.42533892
54	0xbe56de01	-0.20983125
55	0xbf9fb7f7	-1.2478017
56	0xbf881c10	-1.0633564
57	0xbf65c095	-0.8974698
58	0xbf2e7056	-0.6814016
59	0xbee43fca	-0.44579917
60	0xbf86bb63	-1.0525936
61	0xbf54a2ca	-0.83060896
62	0xbf04033d	-0.5156744
63	0xbeb34ce6	-0.35019606
64	0xbd8ddedc	-0.06927273
65	0xbf84fd10	-1.0389729
66	0xbf416e80	-0.75559235
67	0xbef0fcac	-0.47067773
68	0xbea415c7	-0.32047865
69	0xbd879ebe	-0.066220745
70	0xbfa214f1	-1.2662641
71	0xbf693de9	-0.9111009
72	0xbf38baab	-0.7215983
73	0xbf0ba8ef	-0.5455465
74	0xbe1c7e24	-0.15282494
