pt_trainedmodel/ptmodel.pth (torch_old, 94295 bytes, 4 tensors)

layer1.weight f4 [256, 15]
0	0xbf0f7cd7	-0.56049865
1	0xbe59e343	-0.212781
2	0xbe59978e	-0.2124922
3	0xbe869361	-0.26284316
4	0xbd4d3639	-0.05010054
5	0xbe0f12f2	-0.13972071
6	0xbe8d9414	-0.27652037
7	0xbf1fb962	-0.62392247
8	0xbc7e036e	-0.015503747
9	0xbf945d6d	-1.1591011
10	0xbf800238	-1.0000677
11	0xbfeb63b4	-1.8389802
12	0xbeada043	-0.33911332
13	0x3c513945	0.012770002
14	0x3ec8c57a	0.39213163
15	0xbc4f9e6a	-0.012672046
16	0xbd2dd5df	-0.04244029
17	0xbc7ad80c	-0.015310299
18	0x3d226cf8	0.039654702
19	0xbdb0d994	-0.0863525
20	0xbc9078c6	-0.017635714
21	0xbd077a67	-0.033075716
22	0xbb369899	-0.0027861951
23	0xbe6c8b8c	-0.23100108
24	0xbdbf433c	-0.09338996
25	0xbd9a3979	-0.07530493
26	0x3ead4e84	0.33848965
27	0xbcee51a8	-0.029091671
28	0x3d9f192f	0.07768475
29	0xbe64e47c	-0.22352785
30	0xbf67d618	-0.90561056
31	0x3d8814d7	0.066446
32	0xbe98d434	-0.29849398
33	0xbecf4244	-0.40480244
34	0x3e59f0af	0.2128322
35	0xbed453fd	-0.41470328
36	0xbd5889cc	-0.05286579
37	0xbf6102ea	-0.8789507
38	0xbf8a58f6	-1.0808399
39	0xbf005405	-0.50128204
40	0xbda73d23	-0.08165958
41	0xbf04410d	-0.5166176
42	0xbef0fcc9	-0.4706786
43	0xbf058e79	-0.5217052
44	0xbec2d605	-0.3805391
45	0xbd8ec11c	-0.069704264
46	0x3dfa65bf	0.12226438
47	0x3d5c0515	0.053715784
48	0x3edc62f4	0.43044245
49	0x3c13ebca	0.009028384
50	0x3cc73508	0.02431728
51	0xbe2b5bba	-0.1673421
52	0xbdaca0ce	-0.084291086
53	0xbe0d3a4a	-0.13791767
54	0x3e3689fa	0.17826071
55	0xbe4d51a1	-0.2005067
56	0xbeafb874	-0.34320414
57	0xbdca041c	-0.09864065
58	0xbe5118f4	-0.20419675
59	0xbe88d302	-0.26723486
60	0xbeb47041	-0.35241893
61	0xbe240edc	-0.16021293
62	0xbe8f5843	-0.27997026
63	0xbe4a79a9	-0.19772972
64	0xbedb52a0	-0.42836475
65	0xbeed6db3	-0.46372756
66	0xbed966ba	-0.42461187
67	0xbf862ce9	-1.0482455
68	0xbef998fa	-0.48749524
69	0xbf3cbe27	-0.7372765
70	0xbf8038ab	-1.0017294
71	0xbf106646	-0.56406057
72	0xbd12aa04	-0.03580667
73	0x3f18e83f	0.5972938
74	0xbf8957d0	-1.0729923
75	0xbe9af165	-0.30262294
76	0xbe8914ff	-0.2677383
77	0xbcc5856d	-0.024111474
78	0x3e1a34cd	0.15059204
79	0x3d6694c4	0.056294218
80	0x3d99a18a	0.07501514
81	0xbee2032d	-0.44143048
82	0x3ebaf231	0.36512902
83	0xbc9a13a7	-0.0188082
84	0x3e189281	0.14899637
85	0x3d9663de	0.07343267
86	0xbf102e43	-0.5632059
87	0x3c4c0239	0.012451702
88	0xbe862102	-0.26197058
89	0xbf1b5e2e	-0.6069058
90	0xbe49fcc8	-0.19725335
91	0xbd04aaa8	-0.032389313
92	0xbdb64193	-0.08899226
93	0xbe9607ac	-0.29302728
94	0xbebba51c	-0.36649406
95	0xbe3a3b52	-0.18186691
96	0x3befe1a9	0.007320602
97	0xbf033814	-0.51257443
98	0x3dec5e5c	0.11541435
99	0xbcbc1fa8	-0.022964314
100	0xbdeadce7	-0.11467915
101	0x3e272f06	0.16326532
102	0xbd888a76	-0.06667034
103	0x3d9c93a6	0.07645349
104	0x3de9f07b	0.11422821
105	0x3d870076	0.06591885
106	0xbec09105	-0.3761064
107	0xbf123582	-0.57112896
108	0xbedc3027	-0.43005487
109	0xbdb8ee7a	-0.09029861
110	0xbe96f843	-0.29486284
111	0xbec75882	-0.38934714
112	0xbf9bf9ff	-1.2185668
113	0xbed00c32	-0.40634304
114	0xbf04535f	-0.51689714
115	0xbf2e4528	-0.68074274
116	0x3ea1d455	0.3160731
117	0x3c4c4eb3	0.012469935
118	0xbe2588fa	-0.16165534
119	0xbf490a09	-0.7853094
120	0x3d4dab0b	0.050211947
121	0xbe5617a8	-0.20907462
122	0xbf261037	-0.6486849
123	0x3dee3ef3	0.116331
124	0xbe95daac	-0.29268396
125	0xbcc1ac9d	-0.023641879
126	0x3e5674c9	0.20942988
127	0xbe0e6b6f	-0.1390817
128	0xbdef061d	-0.11671088
129	0xbfc1eaaf	-1.5149745
130	0xbeafa848	-0.34308076
131	0x3dbb981e	0.091598734
132	0xbf92e3ab	-1.1475729
133	0x3dbd30c9	0.09237821
134	0xbea9781d	-0.33099452
135	0xbf15f1ce	-0.5857209
136	0xbe0b3a09	-0.13596357
137	0xbf4ca1ca	-0.7993437
138	0xbe84b4e7	-0.25919268
139	0xbd1c03bc	-0.0380895
140	0xbe577ebe	-0.21044442
141	0xbedd470b	-0.43218264
142	0x3c2f68eb	0.010706167
143	0xbdfbc790	-0.12293923
144	0xbec4868e	-0.38383907
145	0xbecc4c47	-0.39901945
146	0xbf30ab84	-0.6901171
147	0xbefb5084	-0.49084866
148	0x3e086e9f	0.13323449
149	0xbef34976	-0.47516984
150	0xbd9b9827	-0.0759738
151	0x3e46bbad	0.1940753
152	0xbe161214	-0.14655334
153	0xbf3124dc	-0.6919687
154	0x3d31cc97	0.043408003
155	0xbf5f4d29	-0.8722711
156	0xbbbbd346	-0.005731973
157	0xbc9bc9b0	-0.01901707
158	0xbe4907e5	-0.19631918
159	0xbeb399d2	-0.35078293
160	0x3d8fedaa	0.07027753
161	0xc018acf3	-2.385556
162	0xbf069952	-0.525777
163	0xbd929973	-0.07158174
164	0xbfbc1f16	-1.4696987
165	0xbeea1246	-0.45717067
166	0xbe86cf06	-0.2632982
167	0xbf57104e	-0.84009254
168	0xbebe9a5c	-0.37227142
169	0x3d9b38bb	0.0757918
170	0xbe814321	-0.25246528
171	0xbf1a9e16	-0.6039747
172	0xbe41f648	-0.18941605
173	0xbeb2bee8	-0.34911275
174	0x3e5e16ad	0.21688338
175	0xbf0ba749	-0.5455213
176	0xbf9b8591	-1.2150136
177	0xbdffdbb7	-0.12493079
178	0xbdf700be	-0.120606884
179	0xbc76f845	-0.0150738405
180	0xbe89d0a7	-0.26917002
181	0x3d1a810f	0.037720736
182	0xbe9d63ae	-0.30740112
183	0xbdb9b7e1	-0.09068275
184	0xbd49601d	-0.049163926
185	0xbbd84c45	-0.006600889
186	0x3dd0fd09	0.102045126
187	0xbebf56b2	-0.3737083
188	0xbe90e212	-0.28297478
189	0xbedbe655	-0.42949167
190	0xbedd5d5f	-0.432353
191	0xbe9754f5	-0.29557005
192	0xbdcb27b4	-0.09919682
193	0xbeb51dd3	-0.35374317
194	0xbeef9b65	-0.46798244
195	0xbdc4f21a	-0.0961649
196	0xbe060781	-0.130888
197	0xbe419ba7	-0.18907033
198	0xbf846b83	-1.034531
199	0xbe4bec6d	-0.19914408
200	0x3d7f9874	0.06240125
201	0xbe8411de	-0.25794882
202	0xbf2b9318	-0.6702132
203	0xbfb9b73d	-1.4509045
204	0xbee6233b	-0.44948754
205	0xbf0ea073	-0.55713576
206	0xbf6b6331	-0.9194823
207	0xbf0c7c01	-0.54876715
208	0xbed45b56	-0.41475934
209	0xbdfe2b40	-0.12410593
210	0xbd1a86e0	-0.037726283
211	0xbe6fe40e	-0.2342684
212	0xbe933b6f	-0.28756282
213	0xbc641ac5	-0.013922398
214	0x3ed623e4	0.41824257
215	0xbf220735	-0.6329225
216	0x3eac48f8	0.3364942
217	0x3d5471b5	0.051866252
218	0xbf330668	-0.6993165
219	0xbf27d549	-0.6555982
220	0xbf095d45	-0.53657943
221	0xbf963315	-1.1734339
222	0xbe051afb	-0.12998573
223	0xbd2dc1d8	-0.042421192
224	0xbe278105	-0.16357811
225	0xbdb7f779	-0.089827485
226	0x3c2b2e50	0.0104480535
227	0xbc0bddd4	-0.008536775
228	0xbe15c35c	-0.14625305
229	0xbcc2b2b9	-0.023766862
230	0xbd0d55a7	-0.034505513
231	0xbe07bf24	-0.13256508
232	0x3cc21de5	0.023695895
233	0x3d37cde8	0.044874102
234	0xbdad9f8f	-0.08477699
235	0xbd3adf80	-0.045623302
236	0x3dbf7ac7	0.0934959
237	0x3cb4e27b	0.02208065
238	0xbe1ba632	-0.15200117
239	0xbe32e842	-0.17471412
240	0xbf7f2f16	-0.9968122
241	0x3cd4db36	0.025983434
242	0xbe651b19	-0.22373618
243	0xbeb1475f	-0.34624764
244	0xbf0ed70b	-0.5579688
245	0x3da801f8	0.082035005
246	0xbf38f0cf	-0.72242445
247	0xbddd494f	-0.10804998
248	0x3d94b71f	0.0726149
249	0xbeecc257	-0.4624202
250	0xbeb5aa8d	-0.35481682
251	0xbe1572e5	-0.1459461
252	0x3d60eb04	0.05491163
253	0xbdc03f49	-0.09387071
254	0xbf524468	-0.8213563
255	0xbbe8ffe1	-0.0071105813

layer1.bias f4 [256]
0	0x3f750f0c	0.95726085
1	0x415f951e	13.973906
2	0xbfb2928a	-1.395097
3	0x40d43026	6.6308775
4	0x3f15c284	0.5849993
5	0x41114524	9.07938
6	0xbfbf82db	-1.4961809
7	0x3fd7526f	1.6822032
8	0xbe0e7970	-0.13913512
9	0xbf293cb6	-0.6610826
10	0x40721c44	3.7829752
11	0xc03c20e6	-2.939508
12	0xc019f583	-2.4056098
13	0x3fe6c73f	1.8029555
14	0x4104072d	8.251752
15	0x414d124e	12.816969
16	0xc07fc455	-3.9963582
17	0x3fb71426	1.4303024
18	0x3fba00ce	1.4531496
19	0x3e5896da	0.21151295
20	0x3f9d4ab3	1.2288421
21	0xbf19d433	-0.60089415
22	0xbe8d8530	-0.27640676
23	0x3fb17e21	1.3866616
24	0xbf4c6a0d	-0.7984932
25	0xc091d786	-4.557559
26	0x406f496d	3.7388566
27	0x3f397a20	0.7245197
28	0xbf2d7060	-0.67749596
29	0xc016be3d	-2.3553612
30	0xc087336b	-4.2250266
31	0xbf183db0	-0.5946913
32	0x413ced5e	11.807951
33	0x40ecf7fa	7.4052706
34	0xbf941414	-1.1568627
35	0xbf16729b	-0.58768624
36	0x40fe1f12	7.941293
37	0xbfc65e39	-1.5497504
38	0xbf45f074	-0.7732003
39	0xc0459f4c	-3.0878477
40	0xc0456597	-3.0843256
41	0xc0088493	-2.1330917
42	0x40438cbb	3.0554645
43	0x3f5a87b9	0.85363346
44	0xc03aed7a	-2.9207444
45	0x3f1a2359	0.60210186
46	0xc006fa76	-2.109037
47	0x4057d02f	3.3720815
48	0x407afd45	3.9217083
49	0xbd17a647	-0.03702381
50	0x411dd850	9.865311
51	0x40d1e3d1	6.5590596
52	0xc03ffcc9	-2.9998038
53	0xbdade5f3	-0.08491125
54	0xbfdd0dfa	-1.726989
55	0xc0234fa3	-2.5517356
56	0x3fb7e7c6	1.4367607
57	0xbf6f174c	-0.93394923
58	0x40706511	3.7561686
59	0xbfd6b9f8	-1.6775503
60	0xbe86b6b5	-0.2631127
61	0xc0377143	-2.866288
62	0x407eddd2	3.9822888
63	0xbf90fd98	-1.1327391
64	0xbf96bdc9	-1.1776668
65	0xc06f5bb0	-3.7399712
66	0xc008eda3	-2.1395042
67	0xbf8a4f58	-1.0805464
68	0x4113acc1	9.229676
69	0xbff05b2a	-1.8777821
70	0xbf6cd41e	-0.92511165
71	0xc09be4e0	-4.871689
72	0x40047887	2.0698564
73	0x3c95db5c	0.018293075
74	0xbf4e8cc5	-0.8068355
75	0xbebdc31e	-0.37062925
76	0xbefcba39	-0.49360827
77	0xbfcb3b8d	-1.5877548
78	0xbfb3291b	-1.3996919
79	0xc01b687f	-2.428253
80	0x408fdc83	4.495668
81	0x40205290	2.5050392
82	0xc0101c7c	-2.2517385
83	0xc012882d	-2.2895615
84	0xbe934b17	-0.28768227
85	0x40076c07	2.1159685
86	0xbfb64d3f	-1.4242324
87	0x3f7c0e99	0.98459774
88	0x409fd385	4.9945703
89	0xbe95eed5	-0.29283777
90	0x3fd62ec2	1.6733019
91	0xc08d8a11	-4.423104
92	0xc02ffd93	-2.749852
93	0x3b4a3386	0.0030853464
94	0xbf95d416	-1.1705348
95	0x3fc306bf	1.5236434
96	0xbfeee767	-1.8664368
97	0xc06af1a7	-3.6709993
98	0xc06b6b99	-3.6784422
99	0x400b6524	2.1780481
100	0xbfa5b92d	-1.2947136
101	0x3e8ac00b	0.27099642
102	0xc004ddf2	-2.0760465
103	0xc08a34e6	-4.3189573
104	0xbf4e43dd	-0.805723
105	0xbf2edf18	-0.68309164
106	0x41529cfe	13.163328
107	0xbf897bc9	-1.0740901
108	0x4156691b	13.4006605
109	0xbff1c61f	-1.8888587
110	0x3f5dba7f	0.86612695
111	0xbf30b417	-0.69024795
112	0x3f1ebde7	0.6200852
113	0xc057b52d	-3.370433
114	0xbfecf5da	-1.8512528
115	0xc0485d01	-3.1306765
116	0x3f8391d6	1.0278881
117	0xbfc69a40	-1.5515823
118	0xc00eae9e	-2.2294078
119	0x3f7667d5	0.96252185
120	0x408da030	4.425804
121	0x410cfa7c	8.811153
122	0xbf03f4bb	-0.51545304
123	0xbfd09d1f	-1.629795
124	0xbfe59081	-1.7934724
125	0x4010e0fd	2.2637322
126	0xbeac2c79	-0.3362768
127	0xbef5fc43	-0.48044023
128	0xc08df604	-4.436281
129	0x3f8423a0	1.0323372
130	0xc013eff4	-2.3115206
131	0xbf94e98b	-1.1633772
132	0x3f9cbee2	1.2245753
133	0x3f95811c	1.1680026
134	0x40a6c5a7	5.2116275
135	0xbfdf52b7	-1.7447118
136	0xbfd6c4c7	-1.6778802
137	0xbf02cfa3	-0.5109808
138	0x403b4917	2.926336
139	0x403cbe0b	2.9490993
140	0x3f91b2ef	1.1382731
141	0xbfe3a66c	-1.7785163
142	0x3ed4fb2f	0.41597888
143	0xc0197aaf	-2.398113
144	0xbfc77261	-1.5581781
145	0xbf4f8647	-0.81064266
146	0x3f2d7a26	0.6776451
147	0xc074c571	-3.8245509
148	0x3fbf1250	1.4927464
149	0x405f3da6	3.4881377
150	0xc0c90ec6	-6.2830534
151	0xc02b3e61	-2.6756823
152	0x3fb93657	1.4469708
153	0x4100f281	8.059205
154	0x3ecb8ef1	0.39757493
155	0x3f6ac21b	0.9170243
156	0xbf5dae1e	-0.86593807
157	0xc0553ccf	-3.3318365
158	0x3f376036	0.7163118
159	0x40e5c963	7.1808333
160	0xbface986	-1.3508766
161	0x3fb73187	1.431199
162	0x3f89e4e7	1.077298
163	0xbf085ca7	-0.53266376
164	0x40012920	2.018135
165	0xbf5bfdd1	-0.8593417
166	0xc0159c35	-2.3376591
167	0xc015ad6f	-2.3387105
168	0xc060be88	-3.511629
169	0xc01f94d5	-2.493459
170	0xbf242824	-0.6412375
171	0xbd0f6543	-0.03500868
172	0x3f9c9795	1.2233759
173	0xbfe4a4ad	-1.7862755
174	0x4076b7d8	3.854971
175	0x3f8a0ae6	1.0784576
176	0xc00cbf5b	-2.1991794
177	0xbff21933	-1.891394
178	0xc00b8a59	-2.180319
179	0x3eff2f05	0.4984056
180	0xbfdeb329	-1.7398425
181	0x3fa6587a	1.2995751
182	0x3fc456b3	1.5338959
183	0x401eea0a	2.4830346
184	0xbf928b5d	-1.144878
185	0x3f842f72	1.0326979
186	0xbf29bfa8	-0.6630807
187	0x4091dca5	4.558184
188	0xbf68ea8d	-0.90982896
189	0xc00d487a	-2.2075486
190	0xc0692a6f	-3.643215
191	0xc0460605	-3.0941174
192	0x41134e10	9.206558
193	0xbfc2fb7e	-1.5232999
194	0xbf934c9f	-1.1507758
195	0xbd764d85	-0.060132522
196	0x3e88f6be	0.2675075
197	0x41520130	13.12529
198	0xbf4c440e	-0.79791343
199	0xc02b9674	-2.681058
200	0x3ec82882	0.39093405
201	0x3ebd543c	0.36978328
202	0x41417dff	12.093261
203	0xbfb3e895	-1.4055353
204	0x3f674335	0.90336925
205	0x3fef7b8b	1.8709577
206	0xbf3b0907	-0.7306065
207	0xc00b77ee	-2.179195
208	0xbf40e2a8	-0.7534585
209	0xbf5b18c4	-0.85584664
210	0xc070a5d2	-3.7601209
211	0x4038be8c	2.88663
212	0x3fb074a8	1.3785601
213	0xc023f22b	-2.5616558
214	0xbfe90acc	-1.820642
215	0xbd13a848	-0.036049157
216	0xc031d488	-2.7785969
217	0xbeedb3d2	-0.46426255
218	0xbfec3e4f	-1.8456515
219	0xbf74e24a	-0.9565779
220	0xbdd267c3	-0.10273697
221	0x3fc1d811	1.5144063
222	0xbe6398a8	-0.22226202
223	0x40541236	3.3136115
224	0xbd9fbf8c	-0.078002065
225	0x3f257d16	0.6464399
226	0xbd90808e	-0.0705577
227	0x3ed30312	0.4121328
228	0xbf31b3f0	-0.6941519
229	0xbf8918d0	-1.0710697
230	0xbf14face	-0.581952
231	0x3fd8169d	1.6881901
232	0x4093a4ce	4.6138678
233	0xc0625751	-3.5365794
234	0xc01691fe	-2.3526607
235	0xbf7743d0	-0.9658785
236	0x3edb1868	0.42792058
237	0xbfbe744d	-1.4879242
238	0xbd29d320	-0.04146111
239	0x3f61da9a	0.88224185
240	0x3fd43763	1.6579403
241	0xbea616ae	-0.32439178
242	0xc0008ac0	-2.0084686
243	0xc0737252	-3.8038526
244	0x3f9e9348	1.2388697
245	0xbf82da3a	-1.0222847
246	0xbe72e57e	-0.23720357
247	0xbe9bb43d	-0.30410948
248	0x3f2524e9	0.64509445
249	0xc05a54c6	-3.4114242
250	0xbed79201	-0.4210358
251	0xbfe00e26	-1.7504318
252	0x403d0b51	2.9538157
253	0x4039afd3	2.9013565
254	0xbeb687a8	-0.35650373
255	0xbff01a83	-1.8758091

layer2.weight f4 [75, 256]
0	0xbe82e471	-0.25564912
1	0xbf8ddfb0	-1.1083889
2	0xbe1dfd70	-0.1542871
3	0xbdc81986	-0.09770493
4	0x3dbe0925	0.09279088
5	0xbf9547ec	-1.1662574
6	0xbe109a16	-0.14121279
7	0xbe921456	-0.2853114
8	0x3e0bcba0	0.13651896
9	0x3de1df50	0.110289216
10	0x3ea3a32c	0.31960428
11	0x3d53d798	0.051719278
12	0x3efee392	0.49782997
13	0x3ec2da21	0.38057044
14	0x3f412107	0.7544102
15	0xbfb57e47	-1.4179162
16	0x3e3462b8	0.17615783
17	0xbee011ae	-0.4376349
18	0xbebe6efc	-0.3719405
19	0x3e235cc4	0.15953356
20	0xbe29ee67	-0.1659485
21	0x3e9cd3e3	0.30630407
22	0x3d708e84	0.058729663
23	0x3df2b05e	0.118500456
24	0x3e406a78	0.18790615
25	0x3f49ed22	0.7887746
26	0xbf0652b5	-0.5246995
27	0xbb76b477	-0.0037644187
28	0xbd892b11	-0.066976674
29	0x3e713d2d	0.23558493
30	0x3f7cb67e	0.9871596
31	0x3e88d637	0.26725933
32	0xbf7c9015	-0.9865735
33	0xbee923ae	-0.45535034
34	0x3c515c35	0.0127783315
35	0x3ed002b0	0.4062705
36	0xbe8c3382	-0.27383047
37	0xbd8773be	-0.06613873
38	0x3ddbc385	0.10730652
39	0x3f442f6a	0.7663485
40	0xbcbe6674	-0.023242213
41	0x3e049d40	0.12950611
42	0x3e9fb379	0.31191614
43	0x3eac8b68	0.3370011
44	0xbe33d548	-0.17561829
45	0x3ee1d1d7	0.44105408
46	0x3f514a8e	0.81754386
47	0xbf17d8a4	-0.5931494
48	0x3e16f847	0.14743148
49	0xbeb29572	-0.34879643
50	0xbf9ebaca	-1.2400753
51	0x3e91b429	0.28457764
52	0xbe04861d	-0.12941785
53	0x3db763ab	0.08954557
54	0x3db9c7db	0.090713225
55	0x3e29de11	0.16588618
56	0x3e07554a	0.13216129
57	0xbe6ad48f	-0.22932647
58	0x3f7de48f	0.9917688
59	0x3e17d1da	0.14826146
60	0xbd656b9d	-0.05601083
61	0xbede420a	-0.4340976
62	0x3ec553c3	0.38540468
63	0x3d88a351	0.06671775
64	0x3ec9559e	0.39323133
65	0xbea1d5ab	-0.31608328
66	0x3ef65bc8	0.481169
67	0x3ed7a159	0.42115286
68	0x3ea582ac	0.32326257
69	0x3e9c7cee	0.30564064
70	0xbd50b0f7	-0.050950017
71	0x3f140a81	0.5782853
72	0x3ec9bb38	0.3940065
73	0x3f14c15d	0.5810755
74	0x3e983b50	0.29732752
75	0xbe6aac32	-0.2291725
76	0x3ed508b4	0.41608202
77	0x3f5fb4d1	0.8738528
78	0x3ca157f9	0.019695269
79	0x3f85531e	1.041599
80	0xbf047bc7	-0.5175137
81	0xbde0ad1f	-0.1097052
82	0xbe27edad	-0.1639926
83	0xbe834ee7	-0.25646135
84	0x3e35dbbb	0.17759602
85	0xbeaae3ec	-0.33377016
86	0x3e695722	0.22787145
87	0xbec5e52f	-0.38651416
88	0xbe181e57	-0.14855324
89	0x3f20595c	0.6263635
90	0x3fb37793	1.4020866
91	0x3ed2e834	0.41192782
92	0x3f1b4a32	0.6066009
93	0x3e909856	0.28241223
94	0x3eec7539	0.46183184
95	0xbdeacc5a	-0.11464758
96	0xbeb99f41	-0.36254314
97	0x3f5799fa	0.84219325
98	0x3ef2825f	0.4736509
99	0x3d3aebf6	0.045635186
100	0x3e8d36c1	0.27580836
101	0x3dbcf3d0	0.09226191
102	0x3ea271fd	0.3172759
103	0x3e63af8f	0.22234939
104	0x3c1fead3	0.009760576
105	0xbe192090	-0.14953828
106	0xbfd35860	-1.6511345
107	0x3ce3c35b	0.027803114
108	0xbf9b596d	-1.2136666
109	0x3df9c1f9	0.121952005
110	0x3ece6ed9	0.40318945
111	0xbda14de9	-0.07876188
112	0xbe920d9f	-0.28526017
113	0x3eb54ec8	0.35411668
114	0x3e8ad095	0.2711226
115	0xbe501d68	-0.20323718
116	0xbec924c8	-0.39285874
117	0x3dc942bb	0.09827181
118	0x3d829cc8	0.0637756
119	0x3e3381fa	0.17530051
120	0xbf12e97a	-0.57387507
121	0xbf515742	-0.8177377
122	0x3e07d8c1	0.13266279
123	0x3f32b01a	0.6979996
124	0xbdbbc521	-0.09168459
125	0xbd8987bf	-0.06715345
126	0xbe02b34a	-0.12763706
127	0x3e80b042	0.25134474
128	0xbe2cbed3	-0.16869669
129	0xbe4c106d	-0.19928141
130	0x3e4f6ea4	0.2025705
131	0x3e90244a	0.28152686
132	0x3e7312a6	0.23737583
133	0xbd31003c	-0.043213114
134	0xbe4e4eb7	-0.20147215
135	0x3f67ce2d	0.90548974
136	0xbe716d26	-0.23576793
137	0x3ece005d	0.40234652
138	0x3e79b66f	0.24385999
139	0x3e49a57f	0.19692038
140	0xbe07579c	-0.13217014
141	0x3e2c3e18	0.16820562
142	0x3ea4c1eb	0.32179198
143	0xbe19a652	-0.15004852
144	0x3d1930e5	0.037400145
145	0x3d2fb933	0.04290123
146	0x3d9d3a6d	0.076771595
147	0xbebd4ed6	-0.3697421
148	0xbe8cf402	-0.27529913
149	0x3e71958a	0.23592201
150	0x3ee42672	0.4456058
151	0xbec63d88	-0.3871882
152	0x3f830b2b	1.0237783
153	0xbe93655d	-0.28788272
154	0x3cdd60d0	0.027023703
155	0x3e418231	0.1889732
156	0x3e0ef3b0	0.13960147
157	0x3ef73cbe	0.4828853
158	0x3d19416e	0.037415914
159	0x3d9ca932	0.07649459
160	0x3d80285c	0.06257698
161	0xbe79edb0	-0.24407077
162	0x3e30323d	0.17206664
163	0x3f313f5f	0.6923732
164	0x3f18c58c	0.5967643
165	0x3e00f89d	0.12594838
166	0xbe4d2902	-0.20035174
167	0xbe2f33ae	-0.17109558
168	0x3d4e5faa	0.0503842
169	0x3e84e5bf	0.25956532
170	0x3f0d1d91	0.5512324
171	0xbda56315	-0.08075539
172	0x3f789a45	0.97110397
173	0x3eef9447	0.46792814
174	0x3f5ed828	0.8704858
175	0x3e4f8653	0.20266084
176	0x3ca6dc91	0.020368846
177	0xbe22a85c	-0.15884537
178	0xbec78019	-0.38964918
179	0xbeac5786	-0.33660525
180	0x3ef60f41	0.48058513
181	0x3f40461f	0.75106996
182	0x3dc875a2	0.09788062
183	0x3f85c459	1.0450546
184	0x3db42d3d	0.08797691
185	0x3f661609	0.8987737
186	0x3e8bcce4	0.27304757
187	0xbe89c427	-0.26907465
188	0x3e3247ba	0.17410174
189	0xbe45d21a	-0.19318429
190	0x3f622671	0.88339907
191	0xbe20371e	-0.15646026
192	0x3f1cc9b2	0.6124526
193	0x3d9dec7d	0.07711122
194	0xbdb035a6	-0.086039826
195	0xbf221a08	-0.6332097
196	0xbbb6709d	-0.005567624
197	0xbf2c430f	-0.67289823
198	0x3da28956	0.07936351
199	0xbe75cb07	-0.2400323
200	0xbe9059e3	-0.28193578
201	0x3d031f77	0.03201243
202	0xbec1ce83	-0.37852868
203	0x3e022fe6	0.12713584
204	0xbe31d26d	-0.17365427
205	0xbf48d1c6	-0.7844509
206	0x3f5e6d66	0.8688568
207	0x3e959fc2	0.29223448
208	0xbd877400	-0.06613922
209	0x3f36fe68	0.71481943
210	0x3e97cded	0.29649296
211	0x3eca7bff	0.39547727
212	0xbebe820f	-0.37208602
213	0x3f5ed890	0.870492
214	0x3e68bf7f	0.227293
215	0xbe12b7d1	-0.14327933
216	0x3d991bf8	0.07476038
217	0x3e20af0c	0.15691775
218	0x3d4add27	0.049527314
219	0x3ecd190a	0.40058166
220	0xbd3a791d	-0.04552566
221	0x3eb0bf8a	0.34521133
222	0x3d06f645	0.032949705
223	0x3f2de803	0.67932147
224	0x3e92586a	0.2858308
225	0x3df7bb84	0.12096313
226	0x3ee5fccd	0.44919434
227	0xbe02e5ef	-0.12783025
228	0xbe99c2f8	-0.30031562
229	0x3dd1d015	0.102447666
230	0x3e8570e9	0.26062706
231	0xbf030f86	-0.5119556
232	0x3e58ed62	0.21184304
233	0x3f973f2d	1.1816155
234	0x3eb4d6dd	0.35320178
235	0x3cf400d7	0.029785557
236	0x3f8dd692	1.1081107
237	0x3ec9003c	0.3925799
238	0x3f4d2b97	0.8014464
239	0x3efb8104	0.4912187
240	0xbc3eae2b	-0.011638205
241	0x3f1200f1	0.57032686
242	0xbe14f9d0	-0.14548421
243	0x3eb4c7bc	0.35308635
244	0xbf4c6069	-0.7983461
245	0xbe569487	-0.20955096
246	0x3e4e773f	0.20162676
247	0x3e979191	0.29603246
248	0x3f0c5bc7	0.5482754
249	0xbe9109dd	-0.28327838
250	0xbe0ab216	-0.13544497
251	0xbc7a6b3d	-0.015284357
252	0xbe950f7e	-0.29113382
253	0x3f57e919	0.84340054
254	0x3e0cdd10	0.13756204
255	0x3eb909a7	0.36140177

layer2.bias f4 [75]
0	0xc046f275	-3.1085484
1	0xbfb1cfb5	-1.3891512
2	0xbe73f739	-0.23824777
3	0x3f3f48a3	0.7472021
4	0x4000f352	2.014851
5	0xc047f6bd	-3.1244347
6	0xbfa65e7f	-1.2997588
7	0xbe670e51	-0.22564055
8	0x3f44c0df	0.768568
9	0x4002366f	2.0345724
10	0xbeb8e0ed	-0.36109105
11	0x400bef03	2.186463
12	0x40645851	3.5678904
13	0x40942993	4.630075
14	0x40a63a5a	5.194623
15	0xbff00e1d	-1.8754307
16	0x3f9446bc	1.1584086
17	0x402bf1d0	2.686634
18	0x4070fdae	3.7654834
19	0x4096a66e	4.707816
20	0xc098e3cb	-4.7778068
21	0xc071799b	-3.7730472
22	0xc0395e23	-2.8963706
23	0xc0037554	-2.0540361
24	0xbedd9ed5	-0.43285242
25	0xc0938e34	-4.611109
26	0xc0409712	-3.0092206
27	0xbff7425a	-1.9317124
28	0xbf62adc1	-0.8854638
29	0x3f2a58f2	0.6654197
30	0xc09d70a3	-4.9199996
31	0xc064b0a1	-3.5732806
32	0xc022afce	-2.5419803
33	0xbfb56fba	-1.4174721
34	0x3dfd4731	0.12367094
35	0xc095564f	-4.6667857
36	0xc0586974	-3.3814363
37	0xc012e238	-2.2950573
38	0xbfa7058f	-1.3048571
39	0x3e095809	0.13412489
40	0xc0b4b19f	-5.6466823
41	0xc071be74	-3.7772493
42	0xc0345d05	-2.8181775
43	0xbff7b0c5	-1.9350821
44	0xbea21b98	-0.31661677
45	0xc0bb27b0	-5.8485947
46	0xc08acc9a	-4.337476
47	0xc054222a	-3.3145852
48	0xc010edaf	-2.264507
49	0xbf1d5dd4	-0.61471295
50	0xc0b462c5	-5.637057
51	0xc0740408	-3.812746
52	0xc02ef260	-2.7335434
53	0xbfe97f55	-1.8241984
54	0xbe3638d6	-0.17795119
55	0xc0e3c546	-7.117831
56	0xc0c8fbb7	-6.280727
57	0xc0aa2270	-5.316704
58	0xc085d22b	-4.1819053
59	0xc0065fa3	-2.0995872
60	0xc0bba632	-5.8640375
61	0xc064cac4	-3.5748758
62	0xc00a5579	-2.1614668
63	0xbf803db1	-1.0018827
64	0x3f4f68f1	0.810195
65	0xc0b607a0	-5.688431
66	0xc0739eec	-3.8065748
67	0xc01fb1e1	-2.4952319
68	0xbfb923f1	-1.4464093
69	0x3d29b209	0.041429553
70	0xc09c3dd8	-4.8825493
71	0xc04b17ac	-3.1733198
72	0xbffdb686	-1.9821327
73	0xbf6f98a2	-0.93592274
74	0x3f5a4c7f	0.85272974
